…
h_tm1 = Tensor("dense_4/BiasAdd:0", shape=(?, 300), dtype=float32)
c_tm1 = Tensor("attention_2h_gru_1/Tile:0", shape=(?, 300), dtype=float32)
h_tm1 = Tensor("attention_2h_gru_1/while/Identity_2:0", shape=(?, 300), dtype=float32)
c_tm1 = Tensor("attention_2h_gru_1/while/Identity_3:0", shape=(?, 300), dtype=float32)
model done
____________________________________________________________________________________________________
Layer (type)                     Output Shape          Param #     Connected to                     
====================================================================================================
input_1 (InputLayer)             (None, 210)           0                                            
____________________________________________________________________________________________________
embedding_1 (Embedding)          (None, 210, 300)      6000000     input_1[0][0]                    
____________________________________________________________________________________________________
reshape_1 (Reshape)              (None, 7, 30, 300)    0           embedding_1[0][0]                
____________________________________________________________________________________________________
time_distributed_1 (TimeDistribu (None, 7, 30, 600)    1081800     reshape_1[0][0]                  
____________________________________________________________________________________________________
dense_1 (Dense)                  (None, 7, 30, 300)    180300      time_distributed_1[0][0]         
____________________________________________________________________________________________________
lambda_1 (Lambda)                (None, 7, 300)        0           dense_1[0][0]                    
____________________________________________________________________________________________________
lambda_2 (Lambda)                (None, 7, 300)        0           dense_1[0][0]                    
____________________________________________________________________________________________________
concatenate_1 (Concatenate)      (None, 7, 600)        0           lambda_1[0][0]                   
                                                                   lambda_2[0][0]                   
____________________________________________________________________________________________________
dense_2 (Dense)                  (None, 7, 300)        180300      concatenate_1[0][0]              
____________________________________________________________________________________________________
input_2 (InputLayer)             (None, 15)            0                                            
____________________________________________________________________________________________________
bidirectional_2 (Bidirectional)  (None, 7, 600)        1081800     dense_2[0][0]                    
____________________________________________________________________________________________________
embedding_2 (Embedding)          (None, 15, 300)       6000000     input_2[0][0]                    
____________________________________________________________________________________________________
dense_3 (Dense)                  (None, 7, 300)        180300      bidirectional_2[0][0]            
____________________________________________________________________________________________________
attention_2h_gru_1 (Attention_2H (None, 15, 300)       1352702     embedding_2[0][0]                
                                                                   dense_3[0][0]                    
                                                                   dense_1[0][0]                    
____________________________________________________________________________________________________
dense_5 (Dense)                  (None, 15, 20000)     6020000     attention_2h_gru_1[0][0]         
=================================I tensorflow/core/common_runtime/gpu/pool_allocator.cc:247] PoolAllocator: After 7609 get requests, put_count=4846 evicted_count=1000 eviction_rate=0.206356 and unsatisfied allocation rate=0.507688
I tensorflow/core/common_runtime/gpu/pool_allocator.cc:259] Raising pool_size_limit_ from 100 to 110
===================================================================
…
